…
2, 'warp_denoising_step': False, 'config_path': 'configs/wan_causal_dmd_v2v.yaml', 'checkpoint_folder': 'ckpts/wan_causal_dmd_v2v', 'output_folder': 'outputs/', 'prompt_file_path': 'prompt.txt', 'video_path': '../../videos/bird.mp4', 'noise_scale': 0.7, 'height': 480, 'width': 832, 'fps': 16, 'step': 4, 'model_type': 'T2V-1.3B', 'num_frames': 81, 'fixed_noise_scale': False}, 'device': device(type='cuda', index=1), 'logger': <Logger SingleGPUInference (INFO)>, 'pipeline': CausalStreamInferencePipeline(
  (generator): CausalWanDiffusionWrapper(
    (model): CausalWanModel(
      (patch_embedding): Conv3d(16, 1536, kernel_size=(1, 2, 2), stride=(1, 2, 2))
      (text_embedding): Sequential(
        (0): Linear(in_features=4096, out_features=1536, bias=True)
        (1): GELU(approximate='tanh')
        (2): Linear(in_features=1536, out_features=1536, bias=True)
      )
      (time_embedding): Sequential(
        (0): Linear(in_features=256, out_features=1536, bias=True)
        (1): SiLU()
        (2): Linear(in_features=1536, out_features=1536, bias=True)
      )
      (time_projection): Sequential(
        (0): SiLU()
        (1): Linear(in_features=1536, out_features=9216, bias=True)
      )
      (blocks): ModuleList(
        (0-29): 30 x CausalWanAttentionBlock(
          (norm1): WanLayerNorm((1536,), eps=1e-06, elementwise_affine=False)
          (self_attn): CausalWanSelfAttention(
            (q): Linear(in_features=1536, out_features=1536, bias=True)
            (k): Linear(in_features=1536, out_features=1536, bias=True)
            (v): Linear(in_features=1536, out_features=1536, bias=True)
            (o): Linear(in_features=1536, out_features=1536, bias=True)
            (norm_q): WanRMSNorm()
            (norm_k): WanRMSNorm()
          )
          (norm3): WanLayerNorm((1536,), eps=1e-06, elementwise_affine=True)
          (cross_attn): WanT2VCrossAttention(
            (q): Linear(in_features=1536, out_features=1536, bias=True)
            (k): Linear(in_features=1536, out_features=1536, bias=True)
            (v): Linear(in_features=1536, out_features=1536, bias=True)
            (o): Linear(in_features=1536, out_features=1536, bias=True)
            (norm_q): WanRMSNorm()
            (norm_k): WanRMSNorm()
          )
          (norm2): WanLayerNorm((1536,), eps=1e-06, elementwise_affine=False)
          (ffn): Sequential(
            (0): Linear(in_features=1536, out_features=8960, bias=True)
            (1): GELU(approximate='tanh')
            (2): Linear(in_features=8960, out_features=1536, bias=True)
          )
        )
      )
      (head): CausalHead(
        (norm): WanLayerNorm((1536,), eps=1e-06, elementwise_affine=False)
        (head): Linear(in_features=1536, out_features=64, bias=True)
      )
    )
  )
  (text_encoder): WanTextEncoder(
    (text_encoder): T5Encoder(
      (token_embedding): Embedding(256384, 4096)
      (dropout): Dropout(p=0.1, inplace=False)
      (blocks): ModuleList(
        (0-23): 24 x T5SelfAttention(
          (norm1): T5LayerNorm()
          (attn): T5Attention(
            (q): Linear(in_features=4096, out_features=4096, bias=False)
            (k): Linear(in_features=4096, out_features=4096, bias=False)
            (v): Linear(in_features=4096, out_features=4096, bias=False)
            (o): Linear(in_features=4096, out_features=4096, bias=False)
            (dropout): Dropout(p=0.1, inplace=False)
          )
          (norm2): T5LayerNorm()
          (ffn): T5FeedForward(
            (gate): Sequential(
              (0): Linear(in_features=4096, out_features=10240, bias=False)
              (1): GELU()
            )
            (fc1): Linear(in_features=4096, out_features=10240, bias=False)
            (fc2): Linear(in_features=10240, out_features=4096, bias=False)
            (dropout): Dropout(p=0.1, inplace=False)
          )
          (pos_embedding): T5RelativeEmbedding(
            (embedding): Embedding(32, 64)
          )
        )
      )
      (norm): T5LayerNorm()
    )
  )
  (vae): WanVAEWrapper(
    (model): WanVAE_(
      (encoder): Encoder3d(
        (conv1): CausalConv3d(3, 96, kernel_size=(3, 3, 3), stride=(1, 1, 1))
        (downsamples): Sequential(
          (0): ResidualBlock(
            (residual): Sequential(
              (0): RMS_norm()
              (1): SiLU()
              (2): CausalConv3d(96, 96, kernel_size=(3, 3, 3), stride=(1, 1, 1))
…
